…
schneider50k/clean_train.csv')
loading data info from ./data/gln_schneider50k/processed/cooked_schneider50k/tpl-default
loading templates
# unique templates 11580
loading smiles feature dump
mol_holder loading ./data/gln_schneider50k/processed/cooked_schneider50k/tpl-default/graph_smarts
loading binary features
mol_holder loading ./data/gln_schneider50k/processed/cooked_schneider50k/tpl-default/../graph_smiles
loading binary features
Building train model
Logging model summary
GraphPath(
  (tpl_fwd_predicate): ActiveProbCalc(
    (prod_enc): EmbedMeanField(
      (act_func): ReLU()
      (w_n2l): Linear(in_features=66, out_features=128, bias=True)
      (w_e2l): Linear(in_features=7, out_features=128, bias=True)
      (conv_layer): _MeanFieldLayer(
        (conv_params): Linear(in_features=128, out_features=128, bias=True)
      )
      (readout_net): ReadoutNet(
        (act_func): ReLU()
        (readout_funcs): ModuleList(
          (0): Linear(in_features=128, out_features=256, bias=True)
        )
      )
    )
    (tpl_enc): DeepsetTempFeaturizer(
      (prod_gnn): EmbedMeanField(
        (act_func): ReLU()
        (w_n2l): Linear(in_features=66, out_features=128, bias=True)
        (w_e2l): Linear(in_features=7, out_features=128, bias=True)
        (conv_layer): _MeanFieldLayer(
          (conv_params): Linear(in_features=128, out_features=128, bias=True)
        )
        (readout_net): ReadoutNet(
          (act_func): ReLU()
          (readout_funcs): ModuleList(
            (0): Linear(in_features=128, out_features=256, bias=True)
          )
        )
      )
      (react_gnn): EmbedMeanField(
        (act_func): ReLU()
        (w_n2l): Linear(in_features=66, out_features=128, bias=True)
        (w_e2l): Linear(in_features=7, out_features=128, bias=True)
        (conv_layer): _MeanFieldLayer(
          (conv_params): Linear(in_features=128, out_features=128, bias=True)
        )
        (readout_net): ReadoutNet(
          (act_func): ReLU()
          (readout_funcs): ModuleList(
            (0): Linear(in_features=128, out_features=256, bias=True)
          )
        )
      )
      (readout): MLP(
        (main): Sequential(
          (0): Linear(in_features=512, out_features=256, bias=True)
          (1): ReLU()
          (2): Linear(in_features=256, out_features=256, bias=True)
        )
      )
    )
    (bilin): Bilinear(in1_features=256, in2_features=256, out_features=1, bias=True)
  )
  (prod_center_predicate): CenterProbCalc(
    (prod_enc): EmbedMeanField(
      (act_func): ReLU()
      (w_n2l): Linear(in_features=66, out_features=128, bias=True)
      (w_e2l): Linear(in_features=7, out_features=128, bias=True)
      (conv_layer): _MeanFieldLayer(
        (conv_params): Linear(in_features=128, out_features=128, bias=True)
      )
      (readout_net): ReadoutNet(
        (act_func): ReLU()
        (readout_funcs): ModuleList(
          (0): Linear(in_features=128, out_features=256, bias=True)
        )
      )
    )
    (prod_center_enc): EmbedMeanField(
      (act_func): ReLU()
      (w_n2l): Linear(in_features=66, out_features=128, bias=True)
      (w_e2l): Linear(in_features=7, out_features=128, bias=True)
      (conv_layer): _MeanFieldLayer(
        (conv_params): Linear(in_features=128, out_features=128, bias=True)
      )
      (readout_net): ReadoutNet(
        (act_func): ReLU()
        (readout_funcs): ModuleList(
          (0): Linear(in_features=128, out_features=256, bias=True)
        )
      )
    )
    (bilin): Bilinear(in1_features=256, in2_features=256, out_features=1, bias=True)
  )
  (reaction_predicate): ReactionProbCalc(
    (prod_enc): EmbedMeanField(
      (act_func): ReLU()
      (w_n2l): Linear(in_features=66, out_features=128, bias=True)
      (w_e2l): Linear(in_features=7, out_features=128, bias=True)
      (conv_layer): _MeanFieldLayer(
        (conv_params): Linear(in_features=128, out_features=128, bias=True)
      )
      (readout_net): ReadoutNet(
        (act_func): ReLU()
        (readout_funcs): ModuleList(
          (0): Linear(in_features=128, out_features=256, bias=True)
        )
      )
    )
    (react_enc): DeepsetReactFeaturizer(
      (react_gnn): EmbedMeanField(
        (act_func): ReLU()
        (w_n2l): Linear(in_features=66, out_features=128, bias=True)
        (w_e2l): Linear(in_features=7, out_features=128, bias=True)
        (conv_layer): _MeanFieldLayer(
          (conv_params): Linear(in_features=128, out_features=128, bias=True)
        )
        (readout_net): ReadoutNet(
          (act_func): ReLU()
          (readout_funcs): ModuleList(
            (0): Linear(in_features=128, out_features=256, bias=True)
          )
        )
      )
    )
    (bilin): Bilinear(in1_features=256, in2_features=256, out_features=1, bias=True)
  )
)

Model #Params: 807.683 k
Start training
Creating data generator
No checkpoint found, training from scratch
Creating optimizer
# raw train loaded: 39713
mol_holder loading ./data/gln_schneider50k/processed/cooked_schneider50k/tpl-default/np-1/neg_graphs-part-0
…
